…
     "iopub.execute_input": "2024-05-20T06:06:29.836709Z",
     "iopub.status.busy": "2024-05-20T06:06:29.836075Z",
     "iopub.status.idle": "2024-05-20T06:06:29.846054Z",
     "shell.execute_reply": "2024-05-20T06:06:29.845202Z"
    },
    "jupyter": {
     "outputs_hidden": true
    },
    "papermill": {
     "duration": 0.036921,
     "end_time": "2024-05-20T06:06:29.848386",
     "exception": false,
     "start_time": "2024-05-20T06:06:29.811465",
     "status": "completed"
    },
    "tags": []
   },
   "outputs": [
    {
     "data": {
      "text/plain": [
       "GPTModel(\n",
       "  (tok_emb): Embedding(50257, 768)\n",
       "  (pos_emb): Embedding(1024, 768)\n",
       "  (drop_emb): Dropout(p=0.1, inplace=False)\n",
       "  (trf_blocks): Sequential(\n",
       "    (0): TransformerBlock(\n",
       "      (att): MultiHeadAttention(\n",
       "        (W_query): Linear(in_features=768, out_features=768, bias=False)\n",
       "        (W_key): Linear(in_features=768, out_features=768, bias=False)\n",
       "        (W_value): Linear(in_features=768, out_features=768, bias=False)\n",
       "        (out_proj): Linear(in_features=768, out_features=768, bias=True)\n",
       "        (dropout): Dropout(p=0.1, inplace=False)\n",
       "      )\n",
       "      (ff): FeedForward(\n",
       "        (layers): Sequential(\n",
       "          (0): Linear(in_features=768, out_features=3072, bias=True)\n",
       "          (1): GELU()\n",
       "          (2): Linear(in_features=3072, out_features=768, bias=True)\n",
       "          (3): Dropout(p=0.1, inplace=False)\n",
       "        )\n",
       "      )\n",
       "      (norm1): LayerNorm()\n",
       "      (norm2): LayerNorm()\n",
       "      (drop_resid): Dropout(p=0.1, inplace=False)\n",
       "    )\n",
       "    (1): TransformerBlock(\n",
       "      (att): MultiHeadAttention(\n",
       "        (W_query): Linear(in_features=768, out_features=768, bias=False)\n",
       "        (W_key): Linear(in_features=768, out_features=768, bias=False)\n",
       "        (W_value): Linear(in_features=768, out_features=768, bias=False)\n",
       "        (out_proj): Linear(in_features=768, out_features=768, bias=True)\n",
       "        (dropout): Dropout(p=0.1, inplace=False)\n",
       "      )\n",
       "      (ff): FeedForward(\n",
       "        (layers): Sequential(\n",
       "          (0): Linear(in_features=768, out_features=3072, bias=True)\n",
       "          (1): GELU()\n",
       "          (2): Linear(in_features=3072, out_features=768, bias=True)\n",
       "          (3): Dropout(p=0.1, inplace=False)\n",
       "        )\n",
       "      )\n",
       "      (norm1): LayerNorm()\n",
       "      (norm2): LayerNorm()\n",
       "      (drop_resid): Dropout(p=0.1, inplace=False)\n",
       "    )\n",
       "    (2): TransformerBlock(\n",
       "      (att): MultiHeadAttention(\n",
       "        (W_query): Linear(in_features=768, out_features=768, bias=False)\n",
       "        (W_key): Linear(in_features=768, out_features=768, bias=False)\n",
       "        (W_value): Linear(in_features=768, out_features=768, bias=False)\n",
       "        (out_proj): Linear(in_features=768, out_features=768, bias=True)\n",
       "        (dropout): Dropout(p=0.1, inplace=False)\n",
       "      )\n",
       "      (ff): FeedForward(\n",
       "        (layers): Sequential(\n",
       "          (0): Linear(in_features=768, out_features=3072, bias=True)\n",
       "          (1): GELU()\n",
       "          (2): Linear(in_features=3072, out_features=768, bias=True)\n",
       "          (3): Dropout(p=0.1, inplace=False)\n",
       "        )\n",
       "      )\n",
       "      (norm1): LayerNorm()\n",
       "      (norm2): LayerNorm()\n",
       "      (drop_resid): Dropout(p=0.1, inplace=False)\n",
       "    )\n",
       "    (3): TransformerBlock(\n",
       "      (att): MultiHeadAttention(\n",
       "        (W_query): Linear(in_features=768, out_features=768, bias=False)\n",
       "        (W_key): Linear(in_features=768, out_features=768, bias=False)\n",
       "        (W_value): Linear(in_features=768, out_features=768, bias=False)\n",
       "        (out_proj): Linear(in_features=768, out_features=768, bias=True)\n",
       "        (dropout): Dropout(p=0.1, inplace=False)\n",
       "      )\n",
       "      (ff): FeedForward(\n",
       "        (layers): Sequential(\n",
       "          (0): Linear(in_features=768, out_features=3072, bias=True)\n",
       "          (1): GELU()\n",
       "          (2): Linear(in_features=3072, out_features=768, bias=True)\n",
       "          (3): Dropout(p=0.1, inplace=False)\n",
       "        )\n",
       "      )\n",
       "      (norm1): LayerNorm()\n",
       "      (norm2): LayerNorm()\n",
       "      (drop_resid): Dropout(p=0.1, inplace=False)\n",
       "    )\n",
       "    (4): TransformerBlock(\n",
       "      (att): MultiHeadAttention(\n",
       "        (W_query): Linear(in_features=768, out_features=768, bias=False)\n",
       "        (W_key): Linear(in_features=768, out_features=768, bias=False)\n",
       "        (W_value): Linear(in_features=768, out_features=768, bias=False)\n",
       "        (out_proj): Linear(in_features=768, out_features=768, bias=True)\n",
       "        (dropout): Dropout(p=0.1, inplace=False)\n",
       "      )\n",
       "      (ff): FeedForward(\n",
       "        (layers): Sequential(\n",
       "          (0): Linear(in_features=768, out_features=3072, bias=True)\n",
       "          (1): GELU()\n",
       "          (2): Linear(in_features=3072, out_features=768, bias=True)\n",
       "          (3): Dropout(p=0.1, inplace=False)\n",
       "        )\n",
       "      )\n",
       "      (norm1): LayerNorm()\n",
       "      (norm2): LayerNorm()\n",
       "      (drop_resid): Dropout(p=0.1, inplace=False)\n",
       "    )\n",
       "    (5): TransformerBlock(\n",
       "      (att): MultiHeadAttention(\n",
       "        (W_query): Linear(in_features=768, out_features=768, bias=False)\n",
       "        (W_key): Linear(in_features=768, out_features=768, bias=False)\n",
       "        (W_value): Linear(in_features=768, out_features=768, bias=False)\n",
       "        (out_proj): Linear(in_features=768, out_features=768, bias=True)\n",
       "        (dropout): Dropout(p=0.1, inplace=False)\n",
       "      )\n",
       "      (ff): FeedForward(\n",
       "        (layers): Sequential(\n",
       "          (0): Linear(in_features=768, out_features=3072, bias=True)\n",
       "          (1): GELU()\n",
       "          (2): Linear(in_features=3072, out_features=768, bias=True)\n",
       "          (3): Dropout(p=0.1, inplace=False)\n",
       "        )\n",
       "      )\n",
       "      (norm1): LayerNorm()\n",
       "      (norm2): LayerNorm()\n",
       "      (drop_resid): Dropout(p=0.1, inplace=False)\n",
       "    )\n",
       "    (6): TransformerBlock(\n",
       "      (att): MultiHeadAttention(\n",
       "        (W_query): Linear(in_features=768, out_features=768, bias=False)\n",
       "        (W_key): Linear(in_features=768, out_features=768, bias=False)\n",
       "        (W_value): Linear(in_features=768, out_features=768, bias=False)\n",
       "        (out_proj): Linear(in_features=768, out_features=768, bias=True)\n",
       "        (dropout): Dropout(p=0.1, inplace=False)\n",
       "      )\n",
       "      (ff): FeedForward(\n",
       "        (layers): Sequential(\n",
       "          (0): Linear(in_features=768, out_features=3072, bias=True)\n",
       "          (1): GELU()\n",
       "          (2): Linear(in_features=3072, out_features=768, bias=True)\n",
       "          (3): Dropout(p=0.1, inplace=False)\n",
       "        )\n",
       "      )\n",
       "      (norm1): LayerNorm()\n",
       "      (norm2): LayerNorm()\n",
       "      (drop_resid): Dropout(p=0.1, inplace=False)\n",
       "    )\n",
       "    (7): TransformerBlock(\n",
       "      (att): MultiHeadAttention(\n",
       "        (W_query): Linear(in_features=768, out_features=768, bias=False)\n",
       "        (W_key): Linear(in_features=768, out_features=768, bias=False)\n",
       "        (W_value): Linear(in_features=768, out_features=768, bias=False)\n",
       "        (out_proj): Linear(in_features=768, out_features=768, bias=True)\n",
       "        (dropout): Dropout(p=0.1, inplace=False)\n",
       "      )\n",
       "      (ff): FeedForward(\n",
       "        (layers): Sequential(\n",
       "          (0): Linear(in_features=768, out_features=3072, bias=True)\n",
       "          (1): GELU()\n",
       "          (2): Linear(in_features=3072, out_features=768, bias=True)\n",
       "          (3): Dropout(p=0.1, inplace=False)\n",
       "        )\n",
       "      )\n",
       "      (norm1): LayerNorm()\n",
       "      (norm2): LayerNorm()\n",
       "      (drop_resid): Dropout(p=0.1, inplace=False)\n",
       "    )\n",
       "    (8): TransformerBlock(\n",
       "      (att): MultiHeadAttention(\n",
       "        (W_query): Linear(in_features=768, out_features=768, bias=False)\n",
       "        (W_key): Linear(in_features=768, out_features=768, bias=False)\n",
       "        (W_value): Linear(in_features=768, out_features=768, bias=False)\n",
       "        (out_proj): Linear(in_features=768, out_features=768, bias=True)\n",
       "        (dropout): Dropout(p=0.1, inplace=False)\n",
       "      )\n",
       "      (ff): FeedForward(\n",
       "        (layers): Sequential(\n",
       "          (0): Linear(in_features=768, out_features=3072, bias=True)\n",
       "          (1): GELU()\n",
       "          (2): Linear(in_features=3072, out_features=768, bias=True)\n",
       "          (3): Dropout(p=0.1, inplace=False)\n",
       "        )\n",
       "      )\n",
       "      (norm1): LayerNorm()\n",
       "      (norm2): LayerNorm()\n",
       "      (drop_resid): Dropout(p=0.1, inplace=False)\n",
       "    )\n",
       "    (9): TransformerBlock(\n",
       "      (att): MultiHeadAttention(\n",
       "        (W_query): Linear(in_features=768, out_features=768, bias=False)\n",
       "        (W_key): Linear(in_features=768, out_features=768, bias=False)\n",
       "        (W_value): Linear(in_features=768, out_features=768, bias=False)\n",
       "        (out_proj): Linear(in_features=768, out_features=768, bias=True)\n",
       "        (dropout): Dropout(p=0.1, inplace=False)\n",
       "      )\n",
       "      (ff): FeedForward(\n",
       "        (layers): Sequential(\n",
       "          (0): Linear(in_features=768, out_features=3072, bias=True)\n",
       "          (1): GELU()\n",
       "          (2): Linear(in_features=3072, out_features=768, bias=True)\n",
       "          (3): Dropout(p=0.1, inplace=False)\n",
       "        )\n",
       "      )\n",
       "      (norm1): LayerNorm()\n",
       "      (norm2): LayerNorm()\n",
       "      (drop_resid): Dropout(p=0.1, inplace=False)\n",
       "    )\n",
       "    (10): TransformerBlock(\n",
       "      (att): MultiHeadAttention(\n",
       "        (W_query): Linear(in_features=768, out_features=768, bias=False)\n",
       "        (W_key): Linear(in_features=768, out_features=768, bias=False)\n",
       "        (W_value): Linear(in_features=768, out_features=768, bias=False)\n",
       "        (out_proj): Linear(in_features=768, out_features=768, bias=True)\n",
       "        (dropout): Dropout(p=0.1, inplace=False)\n",
       "      )\n",
       "      (ff): FeedForward(\n",
       "        (layers): Sequential(\n",
       "          (0): Linear(in_features=768, out_features=3072, bias=True)\n",
       "          (1): GELU()\n",
       "          (2): Linear(in_features=3072, out_features=768, bias=True)\n",
       "          (3): Dropout(p=0.1, inplace=False)\n",
       "        )\n",
       "      )\n",
       "      (norm1): LayerNorm()\n",
       "      (norm2): LayerNorm()\n",
       "      (drop_resid): Dropout(p=0.1, inplace=False)\n",
       "    )\n",
       "    (11): TransformerBlock(\n",
       "      (att): MultiHeadAttention(\n",
       "        (W_query): Linear(in_features=768, out_features=768, bias=False)\n",
       "        (W_key): Linear(in_features=768, out_features=768, bias=False)\n",
       "        (W_value): Linear(in_features=768, out_features=768, bias=False)\n",
       "        (out_proj): Linear(in_features=768, out_features=768, bias=True)\n",
       "        (dropout): Dropout(p=0.1, inplace=False)\n",
       "      )\n",
       "      (ff): FeedForward(\n",
       "        (layers): Sequential(\n",
       "          (0): Linear(in_features=768, out_features=3072, bias=True)\n",
       "          (1): GELU()\n",
       "          (2): Linear(in_features=3072, out_features=768, bias=True)\n",
       "          (3): Dropout(p=0.1, inplace=False)\n",
       "        )\n",
       "      )\n",
       "      (norm1): LayerNorm()\n",
       "      (norm2): LayerNorm()\n",
       "      (drop_resid): Dropout(p=0.1, inplace=False)\n",
       "    )\n",
       "  )\n",
       "  (final_norm): LayerNorm()\n",
       "  (out_head): Linear(in_features=768, out_features=50257, bias=False)\n",
       ")"
      ]
     },
     "execution_count": 42,
     "metadata": {},
     "output_type": "execute_result"
    }
   ],
   "source": [
    "model.eval()"
   ]
  },
  {
   "cell_type": "code",
   "execution_count": 43,
   "id": "230027d4",
   "metadata": {
    "execution": {
     "iopub.execute_input": "2024-05-20T06:06:29.897569Z",
     "iopub.status.busy": "2024-05-20T06:06:29.897279Z",
…
