…
     "iopub.execute_input": "2024-05-21T10:07:12.974569Z",
     "iopub.status.busy": "2024-05-21T10:07:12.973708Z",
     "iopub.status.idle": "2024-05-21T10:07:14.052461Z",
     "shell.execute_reply": "2024-05-21T10:07:14.051515Z"
    },
    "jupyter": {
     "outputs_hidden": true
    },
    "papermill": {
     "duration": 1.122498,
     "end_time": "2024-05-21T10:07:14.054889",
     "exception": false,
     "start_time": "2024-05-21T10:07:12.932391",
     "status": "completed"
    },
    "tags": []
   },
   "outputs": [
    {
     "data": {
      "text/plain": [
       "GPTModel(\n",
       "  (tok_emb): Embedding(50257, 768)\n",
       "  (pos_emb): Embedding(256, 768)\n",
       "  (drop_emb): Dropout(p=0.1, inplace=False)\n",
       "  (trf_blocks): Sequential(\n",
       "    (0): TransformerBlock(\n",
       "      (att): MultiHeadAttention(\n",
       "        (W_query): Linear(in_features=768, out_features=768, bias=False)\n",
       "        (W_key): Linear(in_features=768, out_features=768, bias=False)\n",
       "        (W_value): Linear(in_features=768, out_features=768, bias=False)\n",
       "        (out_proj): Linear(in_features=768, out_features=768, bias=True)\n",
       "        (dropout): Dropout(p=0.1, inplace=False)\n",
       "      )\n",
       "      (ff): FeedForward(\n",
       "        (layers): Sequential(\n",
       "          (0): Linear(in_features=768, out_features=3072, bias=True)\n",
       "          (1): GELU()\n",
       "          (2): Linear(in_features=3072, out_features=768, bias=True)\n",
       "          (3): Dropout(p=0.1, inplace=False)\n",
       "        )\n",
       "      )\n",
       "      (norm1): LayerNorm()\n",
       "      (norm2): LayerNorm()\n",
       "      (drop_resid): Dropout(p=0.1, inplace=False)\n",
       "    )\n",
       "    (1): TransformerBlock(\n",
       "      (att): MultiHeadAttention(\n",
       "        (W_query): Linear(in_features=768, out_features=768, bias=False)\n",
       "        (W_key): Linear(in_features=768, out_features=768, bias=False)\n",
       "        (W_value): Linear(in_features=768, out_features=768, bias=False)\n",
       "        (out_proj): Linear(in_features=768, out_features=768, bias=True)\n",
       "        (dropout): Dropout(p=0.1, inplace=False)\n",
       "      )\n",
       "      (ff): FeedForward(\n",
       "        (layers): Sequential(\n",
       "          (0): Linear(in_features=768, out_features=3072, bias=True)\n",
       "          (1): GELU()\n",
       "          (2): Linear(in_features=3072, out_features=768, bias=True)\n",
       "          (3): Dropout(p=0.1, inplace=False)\n",
       "        )\n",
       "      )\n",
       "      (norm1): LayerNorm()\n",
       "      (norm2): LayerNorm()\n",
       "      (drop_resid): Dropout(p=0.1, inplace=False)\n",
       "    )\n",
       "    (2): TransformerBlock(\n",
       "      (att): MultiHeadAttention(\n",
       "        (W_query): Linear(in_features=768, out_features=768, bias=False)\n",
       "        (W_key): Linear(in_features=768, out_features=768, bias=False)\n",
       "        (W_value): Linear(in_features=768, out_features=768, bias=False)\n",
       "        (out_proj): Linear(in_features=768, out_features=768, bias=True)\n",
       "        (dropout): Dropout(p=0.1, inplace=False)\n",
       "      )\n",
       "      (ff): FeedForward(\n",
       "        (layers): Sequential(\n",
       "          (0): Linear(in_features=768, out_features=3072, bias=True)\n",
       "          (1): GELU()\n",
       "          (2): Linear(in_features=3072, out_features=768, bias=True)\n",
       "          (3): Dropout(p=0.1, inplace=False)\n",
       "        )\n",
       "      )\n",
       "      (norm1): LayerNorm()\n",
       "      (norm2): LayerNorm()\n",
       "      (drop_resid): Dropout(p=0.1, inplace=False)\n",
       "    )\n",
       "    (3): TransformerBlock(\n",
       "      (att): MultiHeadAttention(\n",
       "        (W_query): Linear(in_features=768, out_features=768, bias=False)\n",
       "        (W_key): Linear(in_features=768, out_features=768, bias=False)\n",
       "        (W_value): Linear(in_features=768, out_features=768, bias=False)\n",
       "        (out_proj): Linear(in_features=768, out_features=768, bias=True)\n",
       "        (dropout): Dropout(p=0.1, inplace=False)\n",
       "      )\n",
       "      (ff): FeedForward(\n",
       "        (layers): Sequential(\n",
       "          (0): Linear(in_features=768, out_features=3072, bias=True)\n",
       "          (1): GELU()\n",
       "          (2): Linear(in_features=3072, out_features=768, bias=True)\n",
       "          (3): Dropout(p=0.1, inplace=False)\n",
       "        )\n",
       "      )\n",
       "      (norm1): LayerNorm()\n",
       "      (norm2): LayerNorm()\n",
       "      (drop_resid): Dropout(p=0.1, inplace=False)\n",
       "    )\n",
       "    (4): TransformerBlock(\n",
       "      (att): MultiHeadAttention(\n",
       "        (W_query): Linear(in_features=768, out_features=768, bias=False)\n",
       "        (W_key): Linear(in_features=768, out_features=768, bias=False)\n",
       "        (W_value): Linear(in_features=768, out_features=768, bias=False)\n",
       "        (out_proj): Linear(in_features=768, out_features=768, bias=True)\n",
       "        (dropout): Dropout(p=0.1, inplace=False)\n",
       "      )\n",
       "      (ff): FeedForward(\n",
       "        (layers): Sequential(\n",
       "          (0): Linear(in_features=768, out_features=3072, bias=True)\n",
       "          (1): GELU()\n",
       "          (2): Linear(in_features=3072, out_features=768, bias=True)\n",
       "          (3): Dropout(p=0.1, inplace=False)\n",
       "        )\n",
       "      )\n",
       "      (norm1): LayerNorm()\n",
       "      (norm2): LayerNorm()\n",
       "      (drop_resid): Dropout(p=0.1, inplace=False)\n",
       "    )\n",
       "    (5): TransformerBlock(\n",
       "      (att): MultiHeadAttention(\n",
       "        (W_query): Linear(in_features=768, out_features=768, bias=False)\n",
       "        (W_key): Linear(in_features=768, out_features=768, bias=False)\n",
       "        (W_value): Linear(in_features=768, out_features=768, bias=False)\n",
       "        (out_proj): Linear(in_features=768, out_features=768, bias=True)\n",
       "        (dropout): Dropout(p=0.1, inplace=False)\n",
       "      )\n",
       "      (ff): FeedForward(\n",
       "        (layers): Sequential(\n",
       "          (0): Linear(in_features=768, out_features=3072, bias=True)\n",
       "          (1): GELU()\n",
       "          (2): Linear(in_features=3072, out_features=768, bias=True)\n",
       "          (3): Dropout(p=0.1, inplace=False)\n",
       "        )\n",
       "      )\n",
       "      (norm1): LayerNorm()\n",
       "      (norm2): LayerNorm()\n",
       "      (drop_resid): Dropout(p=0.1, inplace=False)\n",
       "    )\n",
       "    (6): TransformerBlock(\n",
       "      (att): MultiHeadAttention(\n",
       "        (W_query): Linear(in_features=768, out_features=768, bias=False)\n",
       "        (W_key): Linear(in_features=768, out_features=768, bias=False)\n",
       "        (W_value): Linear(in_features=768, out_features=768, bias=False)\n",
       "        (out_proj): Linear(in_features=768, out_features=768, bias=True)\n",
       "        (dropout): Dropout(p=0.1, inplace=False)\n",
       "      )\n",
       "      (ff): FeedForward(\n",
       "        (layers): Sequential(\n",
       "          (0): Linear(in_features=768, out_features=3072, bias=True)\n",
       "          (1): GELU()\n",
       "          (2): Linear(in_features=3072, out_features=768, bias=True)\n",
       "          (3): Dropout(p=0.1, inplace=False)\n",
       "        )\n",
       "      )\n",
       "      (norm1): LayerNorm()\n",
       "      (norm2): LayerNorm()\n",
       "      (drop_resid): Dropout(p=0.1, inplace=False)\n",
       "    )\n",
       "    (7): TransformerBlock(\n",
       "      (att): MultiHeadAttention(\n",
       "        (W_query): Linear(in_features=768, out_features=768, bias=False)\n",
       "        (W_key): Linear(in_features=768, out_features=768, bias=False)\n",
       "        (W_value): Linear(in_features=768, out_features=768, bias=False)\n",
       "        (out_proj): Linear(in_features=768, out_features=768, bias=True)\n",
       "        (dropout): Dropout(p=0.1, inplace=False)\n",
       "      )\n",
       "      (ff): FeedForward(\n",
       "        (layers): Sequential(\n",
       "          (0): Linear(in_features=768, out_features=3072, bias=True)\n",
       "          (1): GELU()\n",
       "          (2): Linear(in_features=3072, out_features=768, bias=True)\n",
       "          (3): Dropout(p=0.1, inplace=False)\n",
       "        )\n",
       "      )\n",
       "      (norm1): LayerNorm()\n",
       "      (norm2): LayerNorm()\n",
       "      (drop_resid): Dropout(p=0.1, inplace=False)\n",
       "    )\n",
       "    (8): TransformerBlock(\n",
       "      (att): MultiHeadAttention(\n",
       "        (W_query): Linear(in_features=768, out_features=768, bias=False)\n",
       "        (W_key): Linear(in_features=768, out_features=768, bias=False)\n",
       "        (W_value): Linear(in_features=768, out_features=768, bias=False)\n",
       "        (out_proj): Linear(in_features=768, out_features=768, bias=True)\n",
       "        (dropout): Dropout(p=0.1, inplace=False)\n",
       "      )\n",
       "      (ff): FeedForward(\n",
       "        (layers): Sequential(\n",
       "          (0): Linear(in_features=768, out_features=3072, bias=True)\n",
       "          (1): GELU()\n",
       "          (2): Linear(in_features=3072, out_features=768, bias=True)\n",
       "          (3): Dropout(p=0.1, inplace=False)\n",
       "        )\n",
       "      )\n",
       "      (norm1): LayerNorm()\n",
       "      (norm2): LayerNorm()\n",
       "      (drop_resid): Dropout(p=0.1, inplace=False)\n",
       "    )\n",
       "    (9): TransformerBlock(\n",
       "      (att): MultiHeadAttention(\n",
       "        (W_query): Linear(in_features=768, out_features=768, bias=False)\n",
       "        (W_key): Linear(in_features=768, out_features=768, bias=False)\n",
       "        (W_value): Linear(in_features=768, out_features=768, bias=False)\n",
       "        (out_proj): Linear(in_features=768, out_features=768, bias=True)\n",
       "        (dropout): Dropout(p=0.1, inplace=False)\n",
       "      )\n",
       "      (ff): FeedForward(\n",
       "        (layers): Sequential(\n",
       "          (0): Linear(in_features=768, out_features=3072, bias=True)\n",
       "          (1): GELU()\n",
       "          (2): Linear(in_features=3072, out_features=768, bias=True)\n",
       "          (3): Dropout(p=0.1, inplace=False)\n",
       "        )\n",
       "      )\n",
       "      (norm1): LayerNorm()\n",
       "      (norm2): LayerNorm()\n",
       "      (drop_resid): Dropout(p=0.1, inplace=False)\n",
       "    )\n",
       "    (10): TransformerBlock(\n",
       "      (att): MultiHeadAttention(\n",
       "        (W_query): Linear(in_features=768, out_features=768, bias=False)\n",
       "        (W_key): Linear(in_features=768, out_features=768, bias=False)\n",
       "        (W_value): Linear(in_features=768, out_features=768, bias=False)\n",
       "        (out_proj): Linear(in_features=768, out_features=768, bias=True)\n",
       "        (dropout): Dropout(p=0.1, inplace=False)\n",
       "      )\n",
       "      (ff): FeedForward(\n",
       "        (layers): Sequential(\n",
       "          (0): Linear(in_features=768, out_features=3072, bias=True)\n",
       "          (1): GELU()\n",
       "          (2): Linear(in_features=3072, out_features=768, bias=True)\n",
       "          (3): Dropout(p=0.1, inplace=False)\n",
       "        )\n",
       "      )\n",
       "      (norm1): LayerNorm()\n",
       "      (norm2): LayerNorm()\n",
       "      (drop_resid): Dropout(p=0.1, inplace=False)\n",
       "    )\n",
       "    (11): TransformerBlock(\n",
       "      (att): MultiHeadAttention(\n",
       "        (W_query): Linear(in_features=768, out_features=768, bias=False)\n",
       "        (W_key): Linear(in_features=768, out_features=768, bias=False)\n",
       "        (W_value): Linear(in_features=768, out_features=768, bias=False)\n",
       "        (out_proj): Linear(in_features=768, out_features=768, bias=True)\n",
       "        (dropout): Dropout(p=0.1, inplace=False)\n",
       "      )\n",
       "      (ff): FeedForward(\n",
       "        (layers): Sequential(\n",
       "          (0): Linear(in_features=768, out_features=3072, bias=True)\n",
       "          (1): GELU()\n",
       "          (2): Linear(in_features=3072, out_features=768, bias=True)\n",
       "          (3): Dropout(p=0.1, inplace=False)\n",
       "        )\n",
       "      )\n",
       "      (norm1): LayerNorm()\n",
       "      (norm2): LayerNorm()\n",
       "      (drop_resid): Dropout(p=0.1, inplace=False)\n",
       "    )\n",
       "  )\n",
       "  (final_norm): LayerNorm()\n",
       "  (out_head): Linear(in_features=768, out_features=50257, bias=False)\n",
       ")"
      ]
     },
     "execution_count": 44,
     "metadata": {},
     "output_type": "execute_result"
    }
   ],
   "source": [
    "model.to(\"cpu\")\n",
    "model.eval()"
   ]
  },
  {
   "cell_type": "code",
   "execution_count": 45,
   "id": "b097a15c",
   "metadata": {
    "execution": {
     "iopub.execute_input": "2024-05-21T10:07:14.136119Z",
…
   "id": "797aacb6",
   "metadata": {
    "execution": {
     "iopub.execute_input": "2024-05-21T10:08:18.759737Z",
     "iopub.status.busy": "2024-05-21T10:08:18.759339Z",
     "iopub.status.idle": "2024-05-21T10:08:20.491272Z",
     "shell.execute_reply": "2024-05-21T10:08:20.490261Z"
    },
    "papermill": {
     "duration": 1.790235,
     "end_time": "2024-05-21T10:08:20.493449",
     "exception": false,
     "start_time": "2024-05-21T10:08:18.703214",
     "status": "completed"
    },
    "tags": []
   },
   "outputs": [
    {
     "data": {
      "text/plain": [
       "GPTModel(\n",
       "  (tok_emb): Embedding(50257, 768)\n",
       "  (pos_emb): Embedding(1024, 768)\n",
       "  (drop_emb): Dropout(p=0.1, inplace=False)\n",
       "  (trf_blocks): Sequential(\n",
       "    (0): TransformerBlock(\n",
       "      (att): MultiHeadAttention(\n",
       "        (W_query): Linear(in_features=768, out_features=768, bias=True)\n",
       "        (W_key): Linear(in_features=768, out_features=768, bias=True)\n",
       "        (W_value): Linear(in_features=768, out_features=768, bias=True)\n",
       "        (out_proj): Linear(in_features=768, out_features=768, bias=True)\n",
       "        (dropout): Dropout(p=0.1, inplace=False)\n",
       "      )\n",
       "      (ff): FeedForward(\n",
       "        (layers): Sequential(\n",
       "          (0): Linear(in_features=768, out_features=3072, bias=True)\n",
       "          (1): GELU()\n",
       "          (2): Linear(in_features=3072, out_features=768, bias=True)\n",
       "          (3): Dropout(p=0.1, inplace=False)\n",
       "        )\n",
       "      )\n",
       "      (norm1): LayerNorm()\n",
       "      (norm2): LayerNorm()\n",
       "      (drop_resid): Dropout(p=0.1, inplace=False)\n",
       "    )\n",
       "    (1): TransformerBlock(\n",
       "      (att): MultiHeadAttention(\n",
       "        (W_query): Linear(in_features=768, out_features=768, bias=True)\n",
       "        (W_key): Linear(in_features=768, out_features=768, bias=True)\n",
       "        (W_value): Linear(in_features=768, out_features=768, bias=True)\n",
       "        (out_proj): Linear(in_features=768, out_features=768, bias=True)\n",
       "        (dropout): Dropout(p=0.1, inplace=False)\n",
       "      )\n",
       "      (ff): FeedForward(\n",
       "        (layers): Sequential(\n",
       "          (0): Linear(in_features=768, out_features=3072, bias=True)\n",
       "          (1): GELU()\n",
       "          (2): Linear(in_features=3072, out_features=768, bias=True)\n",
       "          (3): Dropout(p=0.1, inplace=False)\n",
       "        )\n",
       "      )\n",
       "      (norm1): LayerNorm()\n",
       "      (norm2): LayerNorm()\n",
       "      (drop_resid): Dropout(p=0.1, inplace=False)\n",
       "    )\n",
       "    (2): TransformerBlock(\n",
       "      (att): MultiHeadAttention(\n",
       "        (W_query): Linear(in_features=768, out_features=768, bias=True)\n",
       "        (W_key): Linear(in_features=768, out_features=768, bias=True)\n",
       "        (W_value): Linear(in_features=768, out_features=768, bias=True)\n",
       "        (out_proj): Linear(in_features=768, out_features=768, bias=True)\n",
       "        (dropout): Dropout(p=0.1, inplace=False)\n",
       "      )\n",
       "      (ff): FeedForward(\n",
       "        (layers): Sequential(\n",
       "          (0): Linear(in_features=768, out_features=3072, bias=True)\n",
       "          (1): GELU()\n",
       "          (2): Linear(in_features=3072, out_features=768, bias=True)\n",
       "          (3): Dropout(p=0.1, inplace=False)\n",
       "        )\n",
       "      )\n",
       "      (norm1): LayerNorm()\n",
       "      (norm2): LayerNorm()\n",
       "      (drop_resid): Dropout(p=0.1, inplace=False)\n",
       "    )\n",
       "    (3): TransformerBlock(\n",
       "      (att): MultiHeadAttention(\n",
       "        (W_query): Linear(in_features=768, out_features=768, bias=True)\n",
       "        (W_key): Linear(in_features=768, out_features=768, bias=True)\n",
       "        (W_value): Linear(in_features=768, out_features=768, bias=True)\n",
       "        (out_proj): Linear(in_features=768, out_features=768, bias=True)\n",
       "        (dropout): Dropout(p=0.1, inplace=False)\n",
       "      )\n",
       "      (ff): FeedForward(\n",
       "        (layers): Sequential(\n",
       "          (0): Linear(in_features=768, out_features=3072, bias=True)\n",
       "          (1): GELU()\n",
       "          (2): Linear(in_features=3072, out_features=768, bias=True)\n",
       "          (3): Dropout(p=0.1, inplace=False)\n",
       "        )\n",
       "      )\n",
       "      (norm1): LayerNorm()\n",
       "      (norm2): LayerNorm()\n",
       "      (drop_resid): Dropout(p=0.1, inplace=False)\n",
       "    )\n",
       "    (4): TransformerBlock(\n",
       "      (att): MultiHeadAttention(\n",
       "        (W_query): Linear(in_features=768, out_features=768, bias=True)\n",
       "        (W_key): Linear(in_features=768, out_features=768, bias=True)\n",
       "        (W_value): Linear(in_features=768, out_features=768, bias=True)\n",
       "        (out_proj): Linear(in_features=768, out_features=768, bias=True)\n",
       "        (dropout): Dropout(p=0.1, inplace=False)\n",
       "      )\n",
       "      (ff): FeedForward(\n",
       "        (layers): Sequential(\n",
       "          (0): Linear(in_features=768, out_features=3072, bias=True)\n",
       "          (1): GELU()\n",
       "          (2): Linear(in_features=3072, out_features=768, bias=True)\n",
       "          (3): Dropout(p=0.1, inplace=False)\n",
       "        )\n",
       "      )\n",
       "      (norm1): LayerNorm()\n",
       "      (norm2): LayerNorm()\n",
       "      (drop_resid): Dropout(p=0.1, inplace=False)\n",
       "    )\n",
       "    (5): TransformerBlock(\n",
       "      (att): MultiHeadAttention(\n",
       "        (W_query): Linear(in_features=768, out_features=768, bias=True)\n",
       "        (W_key): Linear(in_features=768, out_features=768, bias=True)\n",
       "        (W_value): Linear(in_features=768, out_features=768, bias=True)\n",
       "        (out_proj): Linear(in_features=768, out_features=768, bias=True)\n",
       "        (dropout): Dropout(p=0.1, inplace=False)\n",
       "      )\n",
       "      (ff): FeedForward(\n",
       "        (layers): Sequential(\n",
       "          (0): Linear(in_features=768, out_features=3072, bias=True)\n",
       "          (1): GELU()\n",
       "          (2): Linear(in_features=3072, out_features=768, bias=True)\n",
       "          (3): Dropout(p=0.1, inplace=False)\n",
       "        )\n",
       "      )\n",
       "      (norm1): LayerNorm()\n",
       "      (norm2): LayerNorm()\n",
       "      (drop_resid): Dropout(p=0.1, inplace=False)\n",
       "    )\n",
       "    (6): TransformerBlock(\n",
       "      (att): MultiHeadAttention(\n",
       "        (W_query): Linear(in_features=768, out_features=768, bias=True)\n",
       "        (W_key): Linear(in_features=768, out_features=768, bias=True)\n",
       "        (W_value): Linear(in_features=768, out_features=768, bias=True)\n",
       "        (out_proj): Linear(in_features=768, out_features=768, bias=True)\n",
       "        (dropout): Dropout(p=0.1, inplace=False)\n",
       "      )\n",
       "      (ff): FeedForward(\n",
       "        (layers): Sequential(\n",
       "          (0): Linear(in_features=768, out_features=3072, bias=True)\n",
       "          (1): GELU()\n",
       "          (2): Linear(in_features=3072, out_features=768, bias=True)\n",
       "          (3): Dropout(p=0.1, inplace=False)\n",
       "        )\n",
       "      )\n",
       "      (norm1): LayerNorm()\n",
       "      (norm2): LayerNorm()\n",
       "      (drop_resid): Dropout(p=0.1, inplace=False)\n",
       "    )\n",
       "    (7): TransformerBlock(\n",
       "      (att): MultiHeadAttention(\n",
       "        (W_query): Linear(in_features=768, out_features=768, bias=True)\n",
       "        (W_key): Linear(in_features=768, out_features=768, bias=True)\n",
       "        (W_value): Linear(in_features=768, out_features=768, bias=True)\n",
       "        (out_proj): Linear(in_features=768, out_features=768, bias=True)\n",
       "        (dropout): Dropout(p=0.1, inplace=False)\n",
       "      )\n",
       "      (ff): FeedForward(\n",
       "        (layers): Sequential(\n",
       "          (0): Linear(in_features=768, out_features=3072, bias=True)\n",
       "          (1): GELU()\n",
       "          (2): Linear(in_features=3072, out_features=768, bias=True)\n",
       "          (3): Dropout(p=0.1, inplace=False)\n",
       "        )\n",
       "      )\n",
       "      (norm1): LayerNorm()\n",
       "      (norm2): LayerNorm()\n",
       "      (drop_resid): Dropout(p=0.1, inplace=False)\n",
       "    )\n",
       "    (8): TransformerBlock(\n",
       "      (att): MultiHeadAttention(\n",
       "        (W_query): Linear(in_features=768, out_features=768, bias=True)\n",
       "        (W_key): Linear(in_features=768, out_features=768, bias=True)\n",
       "        (W_value): Linear(in_features=768, out_features=768, bias=True)\n",
       "        (out_proj): Linear(in_features=768, out_features=768, bias=True)\n",
       "        (dropout): Dropout(p=0.1, inplace=False)\n",
       "      )\n",
       "      (ff): FeedForward(\n",
       "        (layers): Sequential(\n",
       "          (0): Linear(in_features=768, out_features=3072, bias=True)\n",
       "          (1): GELU()\n",
       "          (2): Linear(in_features=3072, out_features=768, bias=True)\n",
       "          (3): Dropout(p=0.1, inplace=False)\n",
       "        )\n",
       "      )\n",
       "      (norm1): LayerNorm()\n",
       "      (norm2): LayerNorm()\n",
       "      (drop_resid): Dropout(p=0.1, inplace=False)\n",
       "    )\n",
       "    (9): TransformerBlock(\n",
       "      (att): MultiHeadAttention(\n",
       "        (W_query): Linear(in_features=768, out_features=768, bias=True)\n",
       "        (W_key): Linear(in_features=768, out_features=768, bias=True)\n",
       "        (W_value): Linear(in_features=768, out_features=768, bias=True)\n",
       "        (out_proj): Linear(in_features=768, out_features=768, bias=True)\n",
       "        (dropout): Dropout(p=0.1, inplace=False)\n",
       "      )\n",
       "      (ff): FeedForward(\n",
       "        (layers): Sequential(\n",
       "          (0): Linear(in_features=768, out_features=3072, bias=True)\n",
       "          (1): GELU()\n",
       "          (2): Linear(in_features=3072, out_features=768, bias=True)\n",
       "          (3): Dropout(p=0.1, inplace=False)\n",
       "        )\n",
       "      )\n",
       "      (norm1): LayerNorm()\n",
       "      (norm2): LayerNorm()\n",
       "      (drop_resid): Dropout(p=0.1, inplace=False)\n",
       "    )\n",
       "    (10): TransformerBlock(\n",
       "      (att): MultiHeadAttention(\n",
       "        (W_query): Linear(in_features=768, out_features=768, bias=True)\n",
       "        (W_key): Linear(in_features=768, out_features=768, bias=True)\n",
       "        (W_value): Linear(in_features=768, out_features=768, bias=True)\n",
       "        (out_proj): Linear(in_features=768, out_features=768, bias=True)\n",
       "        (dropout): Dropout(p=0.1, inplace=False)\n",
       "      )\n",
       "      (ff): FeedForward(\n",
       "        (layers): Sequential(\n",
       "          (0): Linear(in_features=768, out_features=3072, bias=True)\n",
       "          (1): GELU()\n",
       "          (2): Linear(in_features=3072, out_features=768, bias=True)\n",
       "          (3): Dropout(p=0.1, inplace=False)\n",
       "        )\n",
       "      )\n",
       "      (norm1): LayerNorm()\n",
       "      (norm2): LayerNorm()\n",
       "      (drop_resid): Dropout(p=0.1, inplace=False)\n",
       "    )\n",
       "    (11): TransformerBlock(\n",
       "      (att): MultiHeadAttention(\n",
       "        (W_query): Linear(in_features=768, out_features=768, bias=True)\n",
       "        (W_key): Linear(in_features=768, out_features=768, bias=True)\n",
       "        (W_value): Linear(in_features=768, out_features=768, bias=True)\n",
       "        (out_proj): Linear(in_features=768, out_features=768, bias=True)\n",
       "        (dropout): Dropout(p=0.1, inplace=False)\n",
       "      )\n",
       "      (ff): FeedForward(\n",
       "        (layers): Sequential(\n",
       "          (0): Linear(in_features=768, out_features=3072, bias=True)\n",
       "          (1): GELU()\n",
       "          (2): Linear(in_features=3072, out_features=768, bias=True)\n",
       "          (3): Dropout(p=0.1, inplace=False)\n",
       "        )\n",
       "      )\n",
       "      (norm1): LayerNorm()\n",
       "      (norm2): LayerNorm()\n",
       "      (drop_resid): Dropout(p=0.1, inplace=False)\n",
       "    )\n",
       "  )\n",
       "  (final_norm): LayerNorm()\n",
       "  (out_head): Linear(in_features=768, out_features=50257, bias=False)\n",
       ")"
      ]
     },
     "execution_count": 73,
     "metadata": {},
     "output_type": "execute_result"
    }
   ],
   "source": [
    "gpt = GPTModel(NEW_CONFIG)\n",
    "gpt.eval()"
   ]
  },
  {
   "cell_type": "code",
   "execution_count": 74,
   "id": "dc1fc07f",
   "metadata": {
    "execution": {
     "iopub.execute_input": "2024-05-21T10:08:20.606845Z",
…
      "text/plain": [
       "config.json:   0%|          | 0.00/665 [00:00<?, ?B/s]"
      ]
     },
     "metadata": {},
     "output_type": "display_data"
    },
    {
     "data": {
      "application/vnd.jupyter.widget-view+json": {
       "model_id": "8545b6376f7d4ae8898508b92e9aba11",
       "version_major": 2,
       "version_minor": 0
      },
      "text/plain": [
       "model.safetensors:   0%|          | 0.00/548M [00:00<?, ?B/s]"
      ]
     },
     "metadata": {},
     "output_type": "display_data"
    },
    {
     "data": {
      "text/plain": [
       "GPT2Model(\n",
       "  (wte): Embedding(50257, 768)\n",
       "  (wpe): Embedding(1024, 768)\n",
       "  (drop): Dropout(p=0.1, inplace=False)\n",
       "  (h): ModuleList(\n",
       "    (0-11): 12 x GPT2Block(\n",
       "      (ln_1): LayerNorm((768,), eps=1e-05, elementwise_affine=True)\n",
       "      (attn): GPT2Attention(\n",
       "        (c_attn): Conv1D()\n",
       "        (c_proj): Conv1D()\n",
       "        (attn_dropout): Dropout(p=0.1, inplace=False)\n",
       "        (resid_dropout): Dropout(p=0.1, inplace=False)\n",
       "      )\n",
       "      (ln_2): LayerNorm((768,), eps=1e-05, elementwise_affine=True)\n",
       "      (mlp): GPT2MLP(\n",
       "        (c_fc): Conv1D()\n",
       "        (c_proj): Conv1D()\n",
       "        (act): NewGELUActivation()\n",
       "        (dropout): Dropout(p=0.1, inplace=False)\n",
       "      )\n",
       "    )\n",
       "  )\n",
       "  (ln_f): LayerNorm((768,), eps=1e-05, elementwise_affine=True)\n",
       ")"
      ]
     },
     "execution_count": 77,
     "metadata": {},
     "output_type": "execute_result"
    }
   ],
   "source": [
    "from transformers import GPT2Model\n",
    "\n",
    "\n",
    "# allowed model names\n",
    "model_names = {\n",
    "    \"gpt2-small (124M)\": \"openai-community/gpt2\",\n",
    "    \"gpt2-medium (355M)\": \"openai-community/gpt2-medium\",\n",
…
